(60000, 785)
(30000, 784) (30000,) (1000, 784) (1000,)
(30000, 28, 28, 1) (30000,) (1000, 28, 28, 1) (1000,)
Model: "model"
_________________________________________________________________
Layer (type)                 Output Shape              Param #   
=================================================================
input_1 (InputLayer)         [(None, 28, 28, 1)]       0         
_________________________________________________________________
conv2d (Conv2D)              (None, 14, 14, 8)         208       
_________________________________________________________________
conv2d_1 (Conv2D)            (None, 7, 7, 16)          1168      
_________________________________________________________________
conv2d_2 (Conv2D)            (None, 4, 4, 32)          4640      
_________________________________________________________________
conv2d_3 (Conv2D)            (None, 2, 2, 32)          9248      
_________________________________________________________________
average_pooling2d (AveragePo (None, 1, 1, 32)          0         
_________________________________________________________________
flatten (Flatten)            (None, 32)                0         
_________________________________________________________________
dense (Dense)                (None, 10)                330       
=================================================================
Total params: 15,594
Trainable params: 15,594
Non-trainable params: 0
_________________________________________________________________
TrRunning cnn.py file
(60000, 785)
(30000, 784) (30000,) (1000, 784) (1000,)
(30000, 28, 28, 1) (30000,) (1000, 28, 28, 1) (1000,)
Model: "model_3"
_________________________________________________________________
Layer (type)                 Output Shape              Param #   
=================================================================
input_4 (InputLayer)         [(None, 28, 28, 1)]       0         
_________________________________________________________________
conv2d_12 (Conv2D)           (None, 14, 14, 8)         208       
_________________________________________________________________
conv2d_13 (Conv2D)           (None, 7, 7, 16)          1168      
_________________________________________________________________
conv2d_14 (Conv2D)           (None, 4, 4, 32)          4640      
_________________________________________________________________
conv2d_15 (Conv2D)           (None, 2, 2, 32)          9248      
_________________________________________________________________
average_pooling2d_3 (Average (None, 1, 1, 32)          0         
_________________________________________________________________
flatten_3 (Flatten)          (None, 32)                0         
_________________________________________________________________
dense_3 (Dense)              (None, 10)                330       
=================================================================
Total params: 15,594
Trainable params: 15,594
Non-trainable params: 0
_________________________________________________________________
Train on 30000 samples
Epoch 1/10
WARNING: Entity <function Function._initialize_uninitialized_variables.<locals>.initialize_variables at 0x000002122833B678> could not be transformed and will be executed as-is. Please report this to the AutoGraph team. When filing the bug, set the verbosity to 10 (on Linux, `export AUTOGRAPH_VERBOSITY=10`) and attach the full output. Cause: 
…
30000/30000 [==============================] - 10s 317us/sample - loss: 0.2332 - accuracy: 0.9136
The figure is saved as cnn-graph.png
Running cnn.py file
(60000, 785)
(30000, 784) (30000,) (1000, 784) (1000,)
(30000, 28, 28, 1) (30000,) (1000, 28, 28, 1) (1000,)
Model: "model_4"
_________________________________________________________________
Layer (type)                 Output Shape              Param #   
=================================================================
input_5 (InputLayer)         [(None, 28, 28, 1)]       0         
_________________________________________________________________
conv2d_16 (Conv2D)           (None, 14, 14, 8)         208       
_________________________________________________________________
conv2d_17 (Conv2D)           (None, 7, 7, 16)          1168      
_________________________________________________________________
conv2d_18 (Conv2D)           (None, 4, 4, 32)          4640      
_________________________________________________________________
conv2d_19 (Conv2D)           (None, 2, 2, 32)          9248      
_________________________________________________________________
average_pooling2d_4 (Average (None, 1, 1, 32)          0         
_________________________________________________________________
flatten_4 (Flatten)          (None, 32)                0         
_________________________________________________________________
dense_4 (Dense)              (None, 10)                330       
=================================================================
Total params: 15,594
Trainable params: 15,594
Non-trainable params: 0
_________________________________________________________________
Train on 30000 samples
Epoch 1/10
WARNING: Entity <function Function._initialize_uninitialized_variables.<locals>.initialize_variables at 0x00000212434C0798> could not be transformed and will be executed as-is. Please report this to the AutoGraph team. When filing the bug, set the verbosity to 10 (on Linux, `export AUTOGRAPH_VERBOSITY=10`) and attach the full output. Cause: 
…
